services/ml-processor/src/endpoints/views/local_model/model_weights_v1.pth (torch, 59022 bytes, 2 tensors)

fc1.weight f4 [14, 1024]
0	0xbedaf21c	-0.4276284
1	0x3e58afe0	0.21160841
2	0x3ec22949	0.37922123
3	0x3edafa01	0.42768863
4	0x3f199f2e	0.60008514
5	0x3f7bfbdb	0.98431176
6	0x3e1b06f9	0.15139379
7	0xbe595e41	-0.21227361
8	0xbf22970d	-0.63511735
9	0xbf08f06a	-0.5349184
10	0x3eeb4dbf	0.45957753
11	0x3feba395	1.8409296
12	0xbe692f06	-0.22771844
13	0xbfdc6db3	-1.7220978
14	0x3f71b43e	0.9441565
15	0x3fbabdc3	1.4589161
16	0xbe262f82	-0.1622906
17	0xbf55a861	-0.8346005
18	0xbe91e0d5	-0.28491846
19	0xbf66f513	-0.90217704
20	0xbeb93d99	-0.36179808
21	0xbfef2d2f	-1.8685664
22	0xbf6cc988	-0.9249501
23	0x3f0854d3	0.5325443
24	0xbf2bb837	-0.67077965
25	0x3ef0057d	0.46879187
26	0x3fc006e4	1.5002103
27	0x3c439ef0	0.011939749
28	0xbff0f18d	-1.8823715
29	0xbd2a5ef1	-0.04159445
30	0x3f7e4f72	0.99339974
31	0x40070ded	2.110225
32	0xbf7ffb81	-0.9999314
33	0xbf87d53b	-1.0611948
34	0x3e2e201a	0.17004433
35	0xbf980faa	-1.187978
36	0x3faf28a8	1.3684282
37	0x40113587	2.268892
38	0x3db136fb	0.08653065
39	0xbf7003de	-0.937559
40	0x3fbaa08f	1.4580249
41	0x3f3b4a2a	0.7316004
42	0xbe892d2c	-0.26792276
43	0x3f2ebfb8	0.6826129
44	0x3f8cc44e	1.0997407
45	0x3e369e93	0.17833929
46	0x3eb8c8bd	0.3609065
47	0x3ef84ad9	0.48494604
48	0xbea742cb	-0.32668146
49	0xbf895fd8	-1.0732374
50	0x3e758073	0.2397478
51	0x3f31cb11	0.6945048
52	0x3ee5e257	0.44899246
53	0x3e5b8979	0.2143916
54	0xbed735be	-0.4203319
55	0x3f90163b	1.1256784
56	0xbe3dc35f	-0.1853156
57	0xbec113ad	-0.37710324
58	0x3f777b8e	0.96672904
59	0xbf2efc0d	-0.6835335
60	0x3e6562dd	0.22400995
61	0x3de232bb	0.11044832
62	0x3f0bec8a	0.54657805
63	0xbf8b4273	-1.0879654
64	0xbf96dc02	-1.1785891
65	0x3f90b284	1.1304479
66	0xbef56770	-0.4793048
67	0x3f1faf45	0.62376815
68	0xbf241e58	-0.641088
69	0x3f304055	0.6884816
70	0xbf2998a1	-0.6624852
71	0xbfebb7ce	-1.8415468
72	0xbd3649d2	-0.044503994
73	0xbe78d7bc	-0.24301046
74	0xbf6d8426	-0.9277977
75	0xc01a0810	-2.406742
76	0x40321bf7	2.7829568
77	0xbfcfb956	-1.6228435
78	0x3f50107d	0.8127516
79	0xbfb27143	-1.3940815
80	0x3f951b1b	1.1648897
81	0xbf264938	-0.6495547
82	0xbf9398ff	-1.1531066
83	0x3ed7fcfe	0.42185205
84	0xbfdca8fa	-1.7239068
85	0xbf330de0	-0.69943047
86	0x3da782c7	0.08179241
87	0xbfa10e57	-1.2582501
88	0xbd9363f0	-0.07196796
89	0x3edf5eb2	0.43626934
90	0xbe12e7a4	-0.14346176
91	0x3f29483c	0.66125846
92	0xbfb85f82	-1.4404147
93	0x3f9f8bbf	1.2464522
94	0xbea5cb65	-0.3238174
95	0xbf047b5a	-0.5175072
96	0xbf1b1a12	-0.60586655
97	0x3f74356f	0.95394033
98	0x3f59e242	0.8511087
99	0x3f64c7c6	0.8936733
100	0xbf8fdddd	-1.1239582
101	0x3ecd6b2d	0.4012083
102	0xbf00e6ee	-0.5035237
103	0xbfb1cd82	-1.3890841
104	0xbf8e0f69	-1.1098453
105	0x3e2c3514	0.16817123
106	0x3f93d0b4	1.1548066
107	0x3e352559	0.17690028
108	0x3f616473	0.880439
109	0xbeca0598	-0.39457393
110	0xbe06a5dd	-0.1314921
111	0xbe83eec7	-0.2576811
112	0x3f3a2d7d	0.7272566
113	0x3e978714	0.29595244
114	0x3f6e1346	0.9299816
115	0xbf91fccb	-1.1405271
116	0x3da18cda	0.078881934
117	0x3ec8d00d	0.3922123
118	0x3f5f7c55	0.8729909
119	0x3e504ce7	0.20341836
120	0xbeac6840	-0.33673286
121	0xbdb44048	-0.08801323
122	0x3f7479ec	0.9549854
123	0xbfa3a101	-1.278351
124	0xbede2adc	-0.43392074
125	0x3f23783e	0.6385535
126	0xbe049ba4	-0.12949997
127	0x3f7ad70c	0.97984385
128	0x3f9c0eef	1.2192057
129	0x3eaf49bd	0.34235945
130	0xbf1a78ff	-0.60340875
131	0x3f1ded32	0.61690056
132	0x3e2613c9	0.16218485
133	0x3f4f362b	0.8094203
134	0x3f1c0720	0.6094837
135	0x3eecc039	0.46240404
136	0xbf6adb31	-0.9174071
137	0xbef5bba6	-0.47994727
138	0x3f5a028f	0.85160154
139	0x3f7ab31f	0.9792957
140	0x3ddf358f	0.10898887
141	0x3e0d872b	0.13821094
142	0xbf658c8e	-0.89667594
143	0xbe5518ed	-0.2081029
144	0xbe0b514b	-0.1360523
145	0xbd8904cf	-0.0669037
146	0xbf30dcfa	-0.69087183
147	0x3e3bf8a8	0.18356574
148	0x3f0667c8	0.5250211
149	0xbf84463c	-1.0333934
150	0xbf9cfc40	-1.226448
151	0xbfa1cb5a	-1.2640183
152	0x3f6fa534	0.93611455
153	0xbea5aa6e	-0.3235659
154	0xbf893047	-1.0717858
155	0xbf8aba64	-1.0838132
156	0xbfb712a7	-1.4302567
157	0x3f20cb95	0.6281064
158	0x3f10d12e	0.5656918
159	0x3ea55ecc	0.32298887
160	0xbf2e7f37	-0.68162864
161	0x3e156fd8	0.14593446
162	0x3eab4619	0.33451918
163	0xbf2e65ff	-0.68124384
164	0x3f105ebc	0.56394553
165	0xbf8eaa8d	-1.1145798
166	0x3ef429c8	0.47688127
167	0x3f434c62	0.76288426
168	0x3fde2e6b	1.7357916
169	0x3f78d7e9	0.9720445
170	0xbf93a982	-1.1536105
171	0xbf306a77	-0.6891245
172	0xbf25648d	-0.64606553
173	0xbe42ce3b	-0.19023983
174	0xbec7846c	-0.38968217
175	0x3d2899c3	0.041162264
176	0xbe151b9a	-0.1456131
177	0xbf89b332	-1.0757811
178	0xbe9c7c8e	-0.30563778
179	0x4012daf0	2.294613
180	0x40297828	2.6479588
181	0x3f661ac4	0.8988459
182	0x3e4d40f3	0.20044307
183	0xbf6ad420	-0.9172993
184	0x3f1ed7d4	0.6204808
185	0xbfaa636b	-1.331159
186	0x3f1e19e4	0.61758256
187	0x3f9128ba	1.1340554
188	0x3f7c6343	0.9858896
189	0xbf97e98d	-1.1868149
190	0x3fbfdc74	1.4989152
191	0x3faef495	1.366839
192	0xbfc6c926	-1.5530136
193	0xbf9ce35f	-1.2256888
194	0xbf0eeab0	-0.55826855
195	0xbf7824eb	-0.9693133
196	0xbf72e671	-0.94882876
197	0x3f435ac3	0.76310366
198	0x3bf1c4c9	0.007378195
199	0xbf36cd18	-0.714067
200	0xbfbb27b3	-1.462149
201	0xbe17ebcb	-0.14836042
202	0x3fe1387a	1.759536
203	0x3eb3aaf9	0.3509138
204	0x3e8a90ee	0.27063698
205	0xbec67814	-0.38763487
206	0x3f8bd068	1.0922976
207	0xbdf1ce9d	-0.118069865
208	0xbed07a80	-0.4071846
209	0xbdf2e3de	-0.118598685
210	0x3fd0dac5	1.6316763
211	0xbe922c33	-0.28549346
212	0x3f7fe284	0.9995501
213	0xbf9f5e2e	-1.2450616
214	0xbf1ab8ee	-0.6043843
215	0x3efb18b4	0.49042284
216	0xbf825b58	-1.0184126
217	0x3dfac1e7	0.12244015
218	0x3e8842d0	0.26613474
219	0xbef489fa	-0.47761518
220	0xbf6e5592	-0.9309932
221	0x3ea865cd	0.32890168
222	0x3f0b2802	0.5435792
223	0xbef56afe	-0.4793319
224	0x3f693fa1	0.91112715
225	0x3ea2c561	0.31791213
226	0x3f0de9f3	0.55435103
227	0x3fd4fcb1	1.6639615
228	0xbf65b678	-0.8973155
229	0x3c8c282b	0.017108997
230	0x3ef89ec1	0.4855862
231	0xbde783c1	-0.11304427
232	0xbf180faf	-0.5939893
233	0xbfe78387	-1.8087014
234	0x3f57c39f	0.8428287
235	0xbf20ab91	-0.6276179
236	0xbfb05f87	-1.3779153
237	0x3f9c70b0	1.222189
238	0xbfe767f6	-1.8078601
239	0xbf7d62b6	-0.98978746
240	0x3ed53148	0.4163916
241	0xbf32446c	-0.69635653
242	0x3f19b2a7	0.60038227
243	0x40221f70	2.5331688
244	0xbf5ad147	-0.8547558
245	0x3fd37229	1.6519214
246	0xbeb82812	-0.3596807
247	0x3eb68397	0.3564727
248	0xbf14e4e2	-0.5816175
249	0xbfc57b8b	-1.5428327
250	0x3f5c87ba	0.861446
251	0x3f668788	0.90050554
252	0xbfb5e6c3	-1.4211048
253	0xbf83aa8a	-1.0286419
254	0xbfe08c73	-1.7542862
255	0x3fa8ea26	1.3196456

fc1.bias f4 [14]
0	0x3e91f276	0.28505296
1	0xbeae1687	-0.34001562
2	0x3df263dd	0.11835454
3	0xbf1ec718	-0.6202254
4	0xbe8a4131	-0.27002862
5	0x3e46d360	0.1941657
6	0x3e5258fe	0.2054176
7	0x3e9f4973	0.31110725
8	0xbe201470	-0.15632796
9	0x3daae398	0.08344191
10	0x3df1d774	0.118086725
11	0xbf24052f	-0.6407041
12	0x3e14c462	0.14528039
13	0xbdf55971	-0.1197995
